Models/creditcard.pt (torch, 6447 bytes, 6 tensors)

f_connected1.weight f4 [20, 30]
00000000: 6454 aabe 325d 393e 2f0d acbe 2858 ce3e
00000010: 6f72 82be ab96 bdbe febb a23e 8a0c 52be
00000020: 98c3 8e3e 69a3 b43e 072c efbd f0c0 c2be
00000030: e3c6 eb3d fc58 443e 3e9b e63e 74ea 68be
00000040: 485f a43e adb2 5cbe 61b4 743e 31bb 6bbe
00000050: 4376 d63d aabb 19be 9c20 9fbe 9c89 f6bd
00000060: 5897 883e 3a81 773e 6576 91be 8a25 89be
00000070: d20a 7fbe 08da 7d3d 72b1 6c3e fcf5 ae3e
00000080: 6c8e 47be 7b84 923d 8be2 a4be 525a 22bd
00000090: 603f ad3e c45f a53d 4a9b 9f3e d068 55be
000000a0: fe1d 813e ce4f 903e 5172 a73e f875 8e3e
000000b0: a779 293e 730b ce3e 0aec 8dbe 61c5 333e
000000c0: 0180 a43e 048c e2bd 8299 34be c4b4 87be
000000d0: f555 48be f4bf 823e 813a aebe aab5 c7be
000000e0: d843 bdbe d86e b03e dc0d 893e f012 aebe
000000f0: 8981 b23e 059d 673e 4649 223d efd4 8bbe
00000100: 28ab cfbe 69c0 543d b581 533c 85e9 29be
00000110: 70cb ca3e 33b5 1cbe e8b8 903e 647e 91be
00000120: 9818 983e 3139 a33e 518b 3bbb 1ff2 c23e
00000130: 8489 9f3e b747 ba3e 0966 94be a21c 993e
00000140: 1aa4 833e 0afe 40be 09a3 903d 8149 823e
00000150: 6d2b 613e 893e a0be bff5 b93e fd78 5abe
00000160: 96fe 9d3e 68d3 e63c b9cf 22be ab7e 89be
00000170: 24b0 8e3e 849f a03e 1b63 aebe 9da7 303e
00000180: e98e 0dbe 2ad8 8b3e 8161 d63d f4fd 78be
00000190: 6f11 36be 5f77 ebbd f4e7 893e 4c38 34be
000001a0: fd25 093e be5e 393e ceb5 90be 8645 2c3e
000001b0: da43 4ebe 51b0 0ebe 43d6 1f3d 6e96 74be
000001c0: 27d2 98be 914d 403e c83c 54bd cd11 70be
000001d0: de03 593e a817 39be 724b 143d db3d a3be
000001e0: dad4 82be d7d8 cfbd b04b e13d aead 723e
000001f0: 60c5 f1be a89c 343d 894e 45be 91e0 ff3e
00000200: e31a 9ebe e007 993e 796a 73bd eae9 39be
00000210: 20ea 313e dfd4 563e 0913 bc3d 781f febe
00000220: 0b97 99bd af3b 8b3e e9e5 96bd 3084 753e
00000230: 3410 a83e 3a9e 2fbe 053e cebd d263 8ebd
00000240: c446 cb3e 4a21 28be 46da 923e 0b20 e73d
00000250: f732 1dbe 2026 9cbe 5595 293e 0ea1 303e
00000260: a2be c23e a29e d33e 9ee7 503e 36f2 833e
00000270: 4193 2e3e 57d5 293e ccb4 adbd 48ca e23e
00000280: 5852 9dbc 0fde aabe 998a e03e e7e7 0a3d
00000290: 4d47 d53e 51d7 5fbe cb3e 90be e012 8cbe
000002a0: d002 923c 9f62 8abe ac52 8bbe 6cbb aabd
000002b0: d3c1 723e 2e91 b73d 3883 93be b074 e33b
000002c0: 2c59 7cbe e9a4 bcbd c0ba 96bd d965 abbe
000002d0: 70c4 353e 886d 4c3c 57dd 73be 1ea9 763e
000002e0: 2d00 c6be 05ed 8fbe 6bfc 983e 0f8b 16be
000002f0: c843 363e 5294 aa3e 36ed 863e 7014 61be
00000300: bd9a 943e 9a64 833e 89a5 9ebd a372 27be
00000310: 71fd b93e e754 5abe f3db b63e 5db7 a6be
00000320: 8eda 7b3e 8fce 5b3d 04d3 9c3e a7f2 40bd
00000330: 50d0 5f3e 1861 96be b882 0ebe 41bf aa3e
00000340: 913f 05be d015 10be 866c 903e b236 bd3e
00000350: c35b 9a3e 1afd 823e 67a1 d0be cdc2 ad3e
00000360: 067b a9bd a9fc 913e ebd7 9b3e 03e9 6bbe
00000370: e601 853e e98a 493e 1f23 d93e 40e1 8e3e
00000380: 9844 d83d d91f 48be 8f6c 22bd be57 403d
00000390: cca8 81be 58f2 b23e 514b 56be 21d6 ccbd
000003a0: 09be b9be 7d80 a43c 6007 aa3e 085f bf3e
000003b0: 79a5 853e 850e 0abe 1afb 8bbe 06f4 90be
000003c0: 9142 a9be d15e 883e 61dd 93be 6583 513e
000003d0: e1c8 ccbe 152d 9a3d 756c 4e3d 543f a13d
000003e0: 415d 7e3e 499a 71be e86f 193e 4226 8a3e
000003f0: ef61 213e df88 823e 18b2 cd3d 27bf 923e
-0.3326751 0.18101957 -0.33603808 0.40301633 -0.2547793 -0.37029013 0.31784052 -0.20512596
0.278836 0.35280922 -0.116783194 -0.38037825 0.11512544 0.1917457 0.45040315 -0.22745687
0.32103944 -0.21552534 0.23896934 -0.23020627 0.104717754 -0.15012994 -0.31079566 -0.12037966
0.26677966 0.2417039 -0.2841064 -0.26786453 -0.24906471 0.06197551 0.23114565 0.34172046
-0.19487923 0.07154175 -0.3220409 -0.039636917 0.33837414 0.080749065 0.31173164 -0.20840764
0.25218195 0.28185886 0.32704404 0.27824378 0.16550313 0.4024311 -0.27719146 0.17555763
0.3212891 -0.11061862 -0.17636684 -0.265051 -0.1956404 0.25537074 -0.3402901 -0.39005786
-0.36965823 0.34459567 0.26768386 -0.33998823 0.34864452 0.22618492 0.03962066 -0.27310893
-0.4056027 0.05194131 0.012909343 -0.16592987 0.39608335 -0.15303497 0.28266072 -0.2841674
0.29706264 0.3187957 -0.0028616975 0.3807535 0.31159604 0.3638284 -0.28984097 0.29904658
0.25711137 -0.18846908 0.070623465 0.25446704 0.21989222 -0.3129771 0.36320302 -0.21335216
0.30858296 0.028176978 -0.15899552 -0.26854452 0.2786876 0.313717 -0.34059986 0.1725144
-0.13824047 0.27313358 0.10467816 -0.24315625 -0.17780088 -0.114973776 0.2693478 -0.175996
0.13393398 0.18102548 -0.28263706 0.16823396 -0.20143071 -0.13934447 0.039022695 -0.2388551
-0.29847834 0.18779589 -0.051815778 -0.2344429 0.21192881 -0.1807543 0.036204763 -0.3188313
-0.25553018 -0.10148781 0.11000764 0.23699066 -0.47220898 0.04409471 -0.1926824 0.49976018
-0.30879888 0.2988882 -0.059427712 -0.18155637 0.17374468 0.20979641 0.09183318 -0.49633384
-0.07499512 0.27193972 -0.07368071 0.23976207 0.32824862 -0.17150202 -0.10070423 -0.06952633
0.39702427 -0.16418949 0.28682154 0.112854086 -0.15351473 -0.30497837 0.16560872 0.17248937
0.38036066 0.41331965 0.20400855 0.2577073 0.1704836 0.16585289 -0.0848175 0.44294953
-0.019204304 -0.33372542 0.43855742 0.033912566 0.4165596 -0.2185948 -0.28172907 -0.2735815
0.017823607 -0.27028367 -0.2721151 -0.08336529 0.2370675 0.08963238 -0.2881105 0.0069414005
-0.24643391 -0.092111416 -0.073598385 -0.3347614 0.17750716 0.012477286 -0.23814903 0.2408795
-0.3867201 -0.2811052 0.2988008 -0.14701484 0.17799294 0.33316284 0.26352853 -0.21980453
0.29024306 0.2566269 -0.07746417 -0.16352324 0.36326173 -0.2132145 0.35714683 -0.3256177
0.24595091 0.053663787 0.30629742 -0.04710641 0.21856809 -0.29370952 -0.13917053 0.3334904
-0.1301253 -0.14070821 0.28207797 0.36955792 0.30148134 0.25583726 -0.4074814 0.33937684
-0.08275418 0.28513077 0.3043817 -0.23038106 0.2597801 0.19681896 0.42409608 0.27906227
0.10559958 -0.19543399 -0.03965431 0.046958677 -0.25324094 0.3495052 -0.20927168 -0.10001779
-0.36277798 0.0200808 0.33208752 0.3737719 0.26102808 -0.13482101 -0.27340013 -0.28311175
-0.330586 0.2663484 -0.28879836 0.2046028 -0.39997008 0.0752813 0.0503964 0.07873407
0.24840261 -0.23594011 0.14984095 0.26982313 0.15760015 0.2549505 0.10043734 0.28661463

f_connected1.bias f4 [20]
00000000: b227 6e3e 0d5a 963d 5f96 973e fc97 f13c
00000010: d7be ad3e 699d f73d 6b87 f73d eb6f c13e
00000020: b300 8d3e cace ba3e 47a9 c93e c060 973e
00000030: d3bb febc e65c f03d 7d6b 78bc 1d5d a43d
00000040: 4ba3 bd3e 5610 b33d 3d10 023e e50f 0e3e
0.2325733 0.073413946 0.29606912 0.029491417 0.33934662 0.120905705 0.12086376 0.377807
0.27539596 0.36485893 0.3938696 0.29566002 -0.031095421 0.11736469 -0.015162346 0.080255724
0.37038645 0.0874335 0.12701507 0.13873251

f_connected2.weight f4 [20, 20]
00000000: 952d 9a3c 1bd5 15be bf3c 06be b6f9 88be
00000010: 74c0 9bbe 393c 3bbd 0833 a1be 46fc 14be
00000020: 2c10 913d 0136 24be 0a15 86be b4d0 85be
00000030: 11d7 5abd 3a7e 37be a969 9c3d bcf3 f4bd
00000040: f911 bebd ad94 953d f540 97bd ed68 45bd
00000050: 52d7 953e 0693 da3e 33f3 9f3e 0b1a 943e
00000060: dc21 163e c916 eb3d 4040 8a3e a878 093e
00000070: 7b81 403e b1f8 b73c ad69 8c3e 58f1 883e
00000080: e71a 413e 0137 663e 4b76 ab3e e0a0 873e
00000090: f63b c73d e5a3 4c3d 396e ca3e 9ad9 c23d
000000a0: 95e2 3e3e b06e ce3e 5921 4a3e 140b 9d3e
000000b0: 929a b33e fb4b 9c3e ba2b c93e a940 6c3e
000000c0: 85a1 893e 920f 1b3e dfe8 e43d c746 813e
000000d0: cf3a 673e dc85 9a3e f15c da3c 3983 ec3d
000000e0: 4a04 c83e 18d4 493e 7d83 2d3e ac30 c23e
000000f0: 2e97 cd3e 2801 643e 4a3e 8a3e b986 b03d
00000100: 364c ce3d ceb9 3d3e d113 623e 32d1 b83e
00000110: 7096 1e3e 7bdf 9c3e 6ed4 033d 464a 5e3e
00000120: 3775 333d 2b38 593e 13b1 bd3e 9650 cb3e
00000130: 6db5 9b3e be99 5a3e 5e74 3e3e 9d0c f83d
00000140: 7cc8 7bbc 1102 51be 89ea 8ebe ceb8 9f3b
00000150: efd4 88be 3205 2fbe 6dab 4e3d e39f d2bd
00000160: 353a 063d 00c6 733d dfda b6bc a6cd ebbd
00000170: e222 e5bd a437 53bd 5765 2bbe 1b8c e23d
00000180: d643 efbd 0c3d 7abe 10a6 eabd 5061 6abe
00000190: 3303 313e de5e ab3e 2ba8 aa3e 48d6 253e
000001a0: a13e b13d 6bfa 263e d251 843e 1545 403e
000001b0: 9b83 963c 99fd cf3e 3c7a f83d 2c98 7d3e
000001c0: eb55 7d3e b8bf 593e 99b8 c13d b7c8 5b3e
000001d0: 560e 6c3e 5e8e cf3e 7d08 67b9 ccb7 f93c
000001e0: a222 073e dd77 4f3d b09c 993e 5703 b43e
000001f0: 479b 073e abe1 3e3e fff8 0f3e f976 8b3e
00000200: 1197 923e 8a1b 153e ce43 b13e dcfd a23e
00000210: a3fd b33e 32a6 043e 044d 48bb ac94 113b
00000220: cf22 953e b161 273e 8dba 953e 857d bf3e
00000230: 7173 073e e97a 793e 15cf 823e a5b6 913e
00000240: c6a3 533e a922 d83e b255 743e 211f 403e
00000250: 32c8 1c3e 51f8 133e 0fcf 28bb 7a43 723e
00000260: 3541 2a3e 9a47 393e 1e87 0a3e ce39 153e
00000270: d6a4 bf3e 3ac6 e23e 7d4f d33e 466e 913e
00000280: bcdc d43d 41c4 f73d 64d0 453c dd76 533e
00000290: 7a04 863e 558c b93e 28ce 703e 360e 873e
000002a0: 595b 003d 239b 913e 335d b03e 796f 7f3d
000002b0: 17b8 ba3d 7b6e 083e 9413 9fbc 615c 803e
000002c0: 743a 7e3e 62e2 783e 696d d03e ed7d 883d
000002d0: 2af5 823e 9e0a 783e 558a 893d 0ff0 183e
000002e0: 6d04 c43e 6e57 563d 4604 bb3e 313b fc3d
000002f0: 92a9 973e 53ff 953e a82a ca3e 5be9 223e
00000300: 18dd a13d 15e3 a53e acd1 55bc a10e 093e
00000310: e6dd a23d 6ed3 b93e 1883 793e b388 823e
00000320: b64b 923e 34bc 3e3e d68b a83e 170b f53d
00000330: bf8b 3b3d 7d85 343e a1b6 683e 45d2 f33d
00000340: 0ffa 933e e935 d43e e2f9 ba3e dd5e a23d
00000350: 131c 4c3d 9559 993e cf3e 393e 2faf 303e
00000360: 9776 bb3e e3e7 a23e 50e8 f33d bf4e be3e
00000370: 5079 16be 6925 443d 9bb1 32be 2de8 d53c
00000380: cc63 963c 0fd6 2fbd e757 863e 82cf 5fbe
00000390: 4da3 793e 9bb4 973d 91d5 a8bd 638a 3ebe
000003a0: c224 993d 208a 613d c312 033e 88ae 163e
000003b0: 16f1 7a3e a610 5e3e e625 1cbe 70d7 02be
000003c0: 16e8 b13e 986b 363e 93f4 053e 9a22 063e
000003d0: badc 0b3e bb92 483d 84b7 323e 32fb c33e
000003e0: f205 9f3e 4be8 7e3d f396 1e3e 9dc8 773e
000003f0: 55f2 b23e 2404 8a3e f3d1 1b3e b918 343e
0.018820563 -0.14632075 -0.1310911 -0.26753014 -0.30420268 -0.04571173 -0.31484246 -0.1454936
0.07083163 -0.16036226 -0.26187927 -0.2613579 -0.05342776 -0.17919245 0.076373406 -0.11960551
-0.09280772 0.07303748 -0.073854364 -0.04819577 0.2926584 0.42690295 0.31240234 0.2892612
0.14661354 0.11478955 0.27002144 0.13424933 0.18799393 0.022457452 0.27424374 0.2674663
0.18857919 0.2248192 0.33488688 0.26489925 0.097282335 0.04996099 0.39537218 0.095141605
0.18641122 0.40318823 0.19739284 0.30672514 0.35078865 0.30526718 0.39291173 0.23071541
0.26881042 0.15142658 0.11177229 0.2524931 0.22581027 0.30180252 0.026655646 0.11548466
0.39065772 0.19709814 0.1694469 0.3792776 0.40154403 0.22266066 0.27000648 0.08619446
0.1007313 0.1852791 0.22077872 0.36097103 0.15487075 0.30639252 0.03218501 0.2170802
0.043812957 0.21212833 0.3704916 0.3970992 0.30411854 0.2134771 0.18599078 0.12111781
-0.015367623 -0.20410945 -0.2791331 0.0048743254 -0.26724955 -0.17091826 0.050456453 -0.10284402
0.032770354 0.059515 -0.022321163 -0.11513834 -0.11188294 -0.051566735 -0.16737877 0.11061879
-0.116828606 -0.2443735 -0.11457455 -0.22888684 0.17286377 0.33470815 0.33331427 0.16195023
0.08654524 0.16306464 0.25843674 0.18776353 0.018373301 0.40623167 0.12132689 0.2476508
0.24739806 0.21264541 0.09459037 0.21463285 0.23052344 0.40538305 -0.00022033039 0.030483149
0.13196805 0.05065142 0.30002356 0.35158798 0.13242827 0.18640773 0.14059828 0.27239206
0.2863088 0.14561287 0.34622043 0.31834304 0.35154447 0.12954023 -0.0030563483 0.002221386
0.2912812 0.1634586 0.2924389 0.3740045 0.13227631 0.24363293 0.25548616 0.2845966
0.20667943 0.42213944 0.23860815 0.18761875 0.15310743 0.14450194 -0.0025758182 0.23658553
0.16626437 0.1809372 0.13528106 0.14572832 0.37430447 0.4429186 0.41271582 0.28404444
0.10393664 0.12097979 0.01207361 0.20650811 0.2617529 0.36239877 0.23516142 0.2637803
0.031337116 0.28438672 0.34446105 0.062362168 0.091171436 0.13323395 -0.019418515 0.2507048
0.24826986 0.24305108 0.40708473 0.066646434 0.2557767 0.242228 0.06715838 0.14935325
0.38284627 0.052329473 0.36526698 0.12315977 0.2962156 0.2929636 0.3948567 0.1590933
0.079034984 0.32399812 -0.013050478 0.13384487 0.0795248 0.3629412 0.24366415 0.25494918
0.28573388 0.18626481 0.32919186 0.11965006 0.04578757 0.17629047 0.22725917 0.1190534
0.28901717 0.4144738 0.3651877 0.0792825 0.04983146 0.29951158 0.18090366 0.17254327
0.36613914 0.3181754 0.119095445 0.37169454 -0.14694715 0.04788724 -0.17450564 0.026111687
0.018358134 -0.04292875 0.2623894 -0.21856502 0.243787 0.07407495 -0.082438596 -0.18607478
0.07477714 0.055063367 0.12800126 0.14715016 0.2450603 0.21686038 -0.15248832 -0.12777495
0.3474738 0.17814481 0.13081579 0.13099137 0.13658419 0.048968058 0.17452818 0.38277584
0.31059223 0.06223325 0.1548727 0.24197622 0.3495051 0.26956284 0.15216808 0.17587556

f_connected2.bias f4 [20]
00000000: 4414 41bd e9b4 bb3e 12e6 323e 4383 d73d
00000010: 6710 5dbe 6985 3f3e 6c1c 2f3e f03e f83d
00000020: fcc8 d23e 865b bf3e acfd c63d f84a 4b3e
00000030: c7bc e33d 0c1b 963e 6d29 adbe 5ffa ab3e
00000040: 4162 cb3d 9496 c7bd 8c1d 77be 7694 07be
-0.047138467 0.3666146 0.17470577 0.10523083 -0.21588288 0.18703236 0.17100686 0.121213794
0.41168964 0.37374514 0.09716353 0.19852817 0.11119991 0.2931751 -0.33820668 0.33589455
0.0993085 -0.097455174 -0.24132365 -0.13240227

out.weight f4 [2, 20]
00000000: 85d6 e73d 864e 2a3d 7505 7c3e 649e d03e
00000010: 6c7b ebbc fa0b a83e b234 b13e 50f2 883e
00000020: bc58 d23e 1c36 8b3e 85a5 b83e b3e7 c9bb
00000030: 5422 493e bc51 233e 0898 f43d d10c 6a3d
00000040: ee22 913e 5629 6b3b 435b 733e 6c2e a5bd
00000050: ca89 c23b bbc1 b7be 4070 b2be eb9f 91be
00000060: f11d 38be 9b15 d1be ab66 0dbc 2df4 63be
00000070: 8dd2 0fbe 7a34 8ebe 74e6 6abe 0a5f 83be
00000080: 565a a9be a165 b7be 3392 8e3c b767 a9be
00000090: 2848 8cbe 6443 2cbe 967c 533d 6275 09be
0.11320213 0.041578792 0.24611457 0.40745842 -0.028745376 0.32821637 0.34610516 0.2674737
0.41083324 0.2718972 0.3606378 -0.006161654 0.19642001 0.15949148 0.1194306 0.05714113
0.28346962 0.0035882792 0.23765282 -0.08065495 0.005936836 -0.35889992 -0.34851265 -0.2844232
-0.17980172 -0.40836796 -0.008630435 -0.22261114 -0.14045162 -0.2777441 -0.22939473 -0.25658447
-0.33076733 -0.35819724 0.017403698 -0.3308694 -0.273988 -0.16822582 0.051632486 -0.13423684

out.bias f4 [2]
00000000: 80ef c73e 997e edbc
0.39049911 -0.02899103
